…
model.add(Conv2D(36, 5, 5, subsample=(2,2)))
model.add(ELU())
model.add(Conv2D(48, 5, 5, subsample=(2,2)))
model.add(ELU())
model.add(Conv2D(64, 3, 3,))
model.add(ELU())
model.add(Conv2D(64, 3, 3))
model.add(ELU())
model.add(Flatten())
model.add(Dense(100))
model.add(ELU())
model.add(Dense(50))
model.add(ELU())
model.add(Dense(10))
model.add(Dense(1))
model.summary()

Layer (type)                     Output Shape          Param #     Connected to                  
====================================================================================================
batchnormalization_1 (BatchNormal(None, 66, 200, 3)    132         batchnormalization_input_1[0][0] 
____________________________________________________________________________________________________
convolution2d_1 (Convolution2D)  (None, 31, 98, 24)    1824        batchnormalization_1[0][0]       
____________________________________________________________________________________________________
elu_1 (ELU)                      (None, 31, 98, 24)    0           convolution2d_1[0][0]            
____________________________________________________________________________________________________
convolution2d_2 (Convolution2D)  (None, 14, 47, 36)    21636       elu_1[0][0]                      
____________________________________________________________________________________________________
elu_2 (ELU)                      (None, 14, 47, 36)    0           convolution2d_2[0][0]            
____________________________________________________________________________________________________
convolution2d_3 (Convolution2D)  (None, 5, 22, 48)     43248       elu_2[0][0]                      
____________________________________________________________________________________________________
elu_3 (ELU)                      (None, 5, 22, 48)     0           convolution2d_3[0][0]            
____________________________________________________________________________________________________
convolution2d_4 (Convolution2D)  (None, 3, 20, 64)     27712       elu_3[0][0]                      
____________________________________________________________________________________________________
elu_4 (ELU)                      (None, 3, 20, 64)     0           convolution2d_4[0][0]            
____________________________________________________________________________________________________
convolution2d_5 (Convolution2D)  (None, 1, 18, 64)     36928       elu_4[0][0]                      
____________________________________________________________________________________________________
elu_5 (ELU)                      (None, 1, 18, 64)     0           convolution2d_5[0][0]            
____________________________________________________________________________________________________
flatten_1 (Flatten)              (None, 1152)          0           elu_5[0][0]                      
____________________________________________________________________________________________________
dense_1 (Dense)                  (None, 100)           115300      flatten_1[0][0]                  
____________________________________________________________________________________________________
elu_6 (ELU)                      (None, 100)           0           dense_1[0][0]                    
____________________________________________________________________________________________________
dense_2 (Dense)                  (None, 50)            5050        elu_6[0][0]                      
____________________________________________________________________________________________________
elu_7 (ELU)                      (None, 50)            0           dense_2[0][0]                    
____________________________________________________________________________________________________
dense_3 (Dense)                  (None, 10)            510         elu_7[0][0]                      
____________________________________________________________________________________________________
dense_4 (Dense)                  (None, 1)             11          dense_3[0][0]                    
====================================================================================================
Total params: 252351

Instead of storing the training data in memory, I used the generator to generate training set and validation set. I did the following preprocessing and data augmentation in the generator:
1. cut the top 35 lines to eliminate trees & sky, and bottom 20 lines for the hood
…
